tools/tflite_mtcnn/pnet_471_753.tflite (tflite, 32076 bytes, 13 tensors)

pnet/PReLU1/alpha f4 [10]
0	0x3e27bc5a	0.16380444
1	0xbf7577f0	-0.95886135
2	0xbf142c2b	-0.57879895
3	0xbf632017	-0.8872084
4	0xbf1bf6d5	-0.6092351
5	0x3f9f055d	1.2423512
6	0xbf798d5a	-0.9748131
7	0x3f8d0284	1.1016393
8	0x3f84e246	1.0381553
9	0x3f6b5ed4	0.9194157

pnet/PReLU2/alpha f4 [16]
0	0xbfabf763	-1.3434871
1	0x3ddc3767	0.10752755
2	0x40ac1fea	5.3788958
3	0x3de29780	0.110640526
4	0x40738588	3.805025
5	0x40173351	2.362507
6	0xbc8c6fd3	-0.017143166
7	0x3f0a6046	0.5405315
8	0x3cd4e165	0.025986383
9	0x3e225407	0.15852366
10	0xbe043246	-0.12909803
11	0x3dd20920	0.10255647
12	0xbfd0595e	-1.6277273
13	0xbd760c77	-0.06007048
14	0x4115e1f5	9.367665
15	0x3fca2e59	1.5795394

pnet/PReLU3/alpha f4 [32]
0	0xbfc651df	-1.5493735
1	0x0aac5700	1.6595723e-32
2	0x088b2440	8.3742805e-34
3	0xbfd8c92e	-1.6936395
4	0x0ab12414	1.7058051e-32
5	0x0b4c6310	3.9363497e-32
6	0xbe9ea2ad	-0.30983487
7	0x403ccb5e	2.9499125
8	0x40475985	3.1148388
9	0x8b918e8f	-5.6066467e-32
10	0x8b0a1180	-2.6591e-32
11	0x8a8f1d35	-1.3781386e-32
12	0xbf350d11	-0.7072306
13	0x8ae3a584	-2.1921565e-32
14	0xbed4ee20	-0.41587925
15	0x0aa1ab78	1.5568235e-32
16	0xbf226e57	-0.63449615
17	0x0b24ba6c	3.17255e-32
18	0xbf8d2303	-1.102631
19	0x8adb5540	-2.1121e-32
20	0xbdd6b75d	-0.104841925
21	0x0a62d300	1.0921189e-32
22	0x8ae684a0	-2.2198082e-32
23	0x8b7a47ac	-4.820217e-32
24	0xbf8194d4	-1.0123544
25	0x3e75feea	0.24023023
26	0xbebf925e	-0.37416357
27	0x3eef8a21	0.46785071
28	0x40394019	2.8945372
29	0x0afc75b0	2.4310986e-32
30	0xb7b77cf6	-2.187349e-05
31	0xbf9b3c21	-1.2127725

pnet/conv1/Conv2D_bias f4 [10]
0	0xbd982be7	-0.07430249
1	0x400de771	2.217251
2	0x3e6968b7	0.22793852
3	0x3de5864e	0.11207257
4	0xbddff0c9	-0.10934598
5	0x40174d22	2.3640828
6	0x3e250444	0.16114908
7	0x3cb4122d	0.021981323
8	0x3fd3d004	1.6547856
9	0xc0230349	-2.5470755

pnet/conv1/weights f4 [10, 3, 3, 3]
0	0x3e93dc57	0.28879043
1	0xbd5bb325	-0.053637642
2	0x3fd2bbb5	1.6463534
3	0x3ed158e9	0.40888146
4	0x3eab8df6	0.33506745
5	0x3f25a5a0	0.6470585
6	0xbeb1603d	-0.34643736
7	0xbec88591	-0.39164403
8	0xbf83196f	-1.0242137
9	0x3ee83351	0.4535165
10	0x3f1206ec	0.5704181
11	0x3fc99ca7	1.5750932
12	0xbd534c69	-0.051586542
13	0x3cdc9623	0.02692706
14	0xbef94ef4	-0.4869305
15	0xbf25173e	-0.6448859
16	0xbf411b36	-0.75432146
17	0xbfc87e1e	-1.5663488
18	0xbe1d4d8e	-0.15361616
19	0x3ea96be7	0.33090135
20	0x3f2647d2	0.6495334
21	0xbe0bb321	-0.13642551
22	0xbe9423e6	-0.28933638
23	0xbf639d43	-0.8891184
24	0x3eb45925	0.35224262
25	0x3c189a36	0.0093141105
26	0xbf19efe6	-0.6013168
27	0xbf32c835	-0.6983674
28	0x3f098c28	0.53729486
29	0x3e5b6fc4	0.21429354
30	0x3df6e361	0.12055088
31	0x3fe1bd57	1.7635907
32	0xbfec6af3	-1.8470138
33	0xbf3ff54e	-0.7498368
34	0x3ef0511e	0.46936888
35	0x3eeeb789	0.466244
36	0xbf71faee	-0.94523513
37	0x3f9957d1	1.1979924
38	0xbe02c50e	-0.12770483
39	0xbc8ab6e4	-0.016932912
40	0x4039069c	2.8910284
41	0xc02e6559	-2.7249358
42	0xbf6f331e	-0.93437374
43	0x3fcf755d	1.6207691
44	0xbf0dbb53	-0.5536396
45	0xbf4766c8	-0.77891207
46	0x3ee268bf	0.4422054
47	0x3f063ec6	0.52439535
48	0x3e702d9f	0.23454903
49	0x400b0375	2.172086
50	0xc00a92a1	-2.1651995
51	0xbf0fb5b7	-0.5613665
52	0x3f737747	0.9510388
53	0xbe5ed455	-0.21760686
54	0xbf8c2bff	-1.0950927
55	0xbd93e6c0	-0.072217464
56	0xc0925d7d	-4.573912
57	0xbd0907cf	-0.033454712
58	0x3fa18e81	1.2621614
59	0xc05b8d55	-3.4305012
60	0xbf6f5791	-0.9349299
61	0x3ed1421b	0.40870747
62	0xc08ac0fc	-4.3360577
63	0xbed65126	-0.41858786
64	0xbe46d1cd	-0.1941597
65	0xbe6e57e9	-0.23275723
66	0x3f26791d	0.65028554
67	0x3f56d436	0.8391756
68	0x3f352b2a	0.7076899
69	0x3d1aae32	0.03776378
70	0x3e89fced	0.2695078
71	0x3e37a529	0.17934097
72	0x3ea444e9	0.32083824
73	0xbf5a9aa7	-0.8539223
74	0x406e62a7	3.7247713
75	0x3f81dcdd	1.0145527
76	0xbebf2c0d	-0.37338296
77	0x408ab383	4.334413
78	0x3d47f3a3	0.048816334
79	0xbf83e89d	-1.0305363
80	0x406c32b8	3.6905956
81	0x3f33b733	0.70201415
82	0x3fcb68ca	1.5891354
83	0xbf433955	-0.76259357
84	0x3ef3d98b	0.4762691
85	0xbe915206	-0.2838289
86	0xbfdbbf93	-1.7167839
87	0x3e851b13	0.25997218
88	0xbe21bd4f	-0.15794872
89	0x3f0b190e	0.54335105
90	0x3f118cfa	0.5685574
91	0x3e318540	0.17335987
92	0xbfd3c0b3	-1.6543182
93	0x3f9274e6	1.1441925
94	0x3e71cf09	0.23614134
95	0xbf44493b	-0.7667424
96	0xbed1678d	-0.40899315
97	0xbf3b7829	-0.73230225
98	0x3f6d760b	0.92758244
99	0xbe9996ad	-0.2999777
100	0x3d74ed62	0.0597967
101	0x3de8903a	0.11355634
102	0xbf405d76	-0.7514261
103	0xbdf48cd9	-0.11940927
104	0x3f7895b0	0.97103405
105	0xbfa29bfa	-1.270385
106	0xbf2cfbbd	-0.6757162
107	0x3fe866c5	1.8156363
108	0x3ed0da5e	0.407916
109	0x3fce01ac	1.609426
110	0x3e9fc092	0.31201607
111	0x3f8c12e0	1.094326
112	0x4000ae66	2.0106444
113	0x3fe6d4a3	1.8033642
114	0x3e829520	0.25504398
115	0x3fa32783	1.2746433
116	0x3fb7234e	1.4307649
117	0xbf54c8e2	-0.8311902
118	0xbfb9fdb5	-1.453055
119	0xc00f5e47	-2.2401292
120	0xc02cbd13	-2.6990402
121	0xc08649c5	-4.196505
122	0xc08819a4	-4.25313
123	0xbfd39f25	-1.6532942
124	0xc01bd96d	-2.4351456
125	0xc0201c16	-2.5017142
126	0x3fa1562e	1.2604425
127	0x3f5e35e7	0.86801
128	0x3fc85d07	1.565339
129	0x3fe1885d	1.761974
130	0x3f4f2565	0.80916435
131	0x402d5d63	2.7088249
132	0x3f913264	1.1343503
133	0x3e27fb85	0.16404541
134	0x3fe070b0	1.753439
135	0xbf4ea4c6	-0.80720174
136	0xbfa35004	-1.2758794
137	0x3f870387	1.0547951
138	0xbe969291	-0.29408696
139	0xbf8d154a	-1.1022122
140	0x3f60a7d1	0.8775607
141	0x3f3399e6	0.70156705
142	0xbf53cdd3	-0.8273594
143	0x3f7c1c5d	0.9848078
144	0xbe3aebc3	-0.18253998
145	0xbdf4271a	-0.119215205
146	0x3f2746f3	0.65342635
147	0xbf82119f	-1.0161628
148	0xbf6ab885	-0.91687804
149	0xbf092278	-0.5356822
150	0xbecf0320	-0.40432072
151	0xbed8094f	-0.42194602
152	0xbd8e26b8	-0.06940979
153	0x3f42e5b4	0.7613175
154	0x3efffa82	0.4999581
155	0x3e839bfb	0.2570494
156	0xbe0450fc	-0.12921518
157	0x3ea4542f	0.32095477
158	0xbe51de30	-0.20494914
159	0xbf125fca	-0.5717741
160	0xbe29aa1a	-0.16568795
161	0xbf2eb357	-0.682424
162	0x3e9a25dc	0.3010701
163	0x3f61f600	0.8826599
164	0x3f9160d4	1.1357675
165	0xbfb31eb1	-1.3993741
166	0xc0173e6c	-2.363185
167	0xc0534edc	-3.3016882
168	0x3f30e664	0.6910155
169	0x3fbc3866	1.4704711
170	0x3fc7c2e0	1.5606346
171	0x3fadf181	1.3589326
172	0x3fe75ef9	1.8075858
173	0x40168ea7	2.3524568
174	0xc01b573c	-2.4271994
175	0xc04806f9	-3.1254256
176	0xc07295a5	-3.7903836
177	0x3f95e21d	1.1709629
178	0x40097511	2.1477702
179	0x40110d87	2.2664506
180	0x3f310451	0.6914721
181	0x3f8e99e9	1.114072
182	0x3fc23026	1.5170944
183	0xbfaec858	-1.365489
184	0xc0161763	-2.3451774
185	0xc03ae914	-2.920476
186	0x3f40af18	0.7526717
187	0x3f9105cc	1.1329894
188	0x3f863c37	1.0487126
189	0x4031551e	2.7708201
190	0x405219d3	3.2828262
191	0x40663b15	3.597356
192	0x4077e78a	3.873507
193	0x409002db	4.5003486
194	0x405cca11	3.4498332
195	0x4064ff8b	3.578097
196	0x40553b32	3.331738
197	0x3fd4667c	1.6593776
198	0x3ff69566	1.9264343
199	0x407d6847	3.9594896
200	0x4039f0b9	2.9053175
201	0x3f9ffbf2	1.2498763
202	0x406b54af	3.6770437
203	0x3fdcfa60	1.7263908
204	0x401bd77a	2.4350266
205	0x40912bd1	4.5365987
206	0x400da635	2.2132695
207	0x3fbf4e50	1.4945774
208	0x4042f0e3	3.0459526
209	0x3f2770f9	0.6540676
210	0x3fcc1cee	1.5946329
211	0x408d2b40	4.4115295
212	0x3f96540b	1.1744398
213	0x400427cf	2.0649297
214	0x40ac4be0	5.384262
215	0x4007727a	2.116362
216	0xbe38e86a	-0.18057409
217	0xbf5d1b8d	-0.86370164
218	0xbfe8d401	-1.8189698
219	0xbdbf5a24	-0.09343365
220	0xbe3d159c	-0.18465275
221	0xbfab5dcd	-1.3388001
222	0xbe5ede67	-0.21764527
223	0xbdd15e9d	-0.10223124
224	0xbfcd7428	-1.6051073
225	0x3eeae0e5	0.45874706
226	0x3f9c3afe	1.2205503
227	0x3f055210	0.5207834
228	0x3e055c36	0.13023457
229	0x3f6c6615	0.92343265
230	0xbe04fd14	-0.12987167
231	0xbf596f38	-0.8493533
232	0xbea29bd7	-0.3175952
233	0xc00d1e1e	-2.2049632
234	0xbf861ad4	-1.0476937
235	0x3ee1d2a5	0.44106022
236	0xc011fdac	-2.281108
237	0xbf4ea047	-0.80713314
238	0x3f27ebf2	0.655944
239	0xc02d3525	-2.7063687
240	0xbe8ad03e	-0.27112
241	0x3f8c0762	1.0939753
242	0xc023cd72	-2.5594144
243	0xbda2dd21	-0.07952333
244	0x3f6fb402	0.93634045
245	0xc03f1505	-2.985658
246	0x3f89cafb	1.076507
247	0x3ff27d24	1.894444
248	0xbff1b46a	-1.8883183
249	0x3f196950	0.5992632
250	0x3f944e38	1.158637
251	0xbeda2db7	-0.42613003
252	0xbf328e16	-0.69748056
253	0x3ee55b55	0.44796243
254	0xc01308f0	-2.2974205
255	0x3dd30c45	0.103050746

pnet/conv2/Conv2D_bias f4 [16]
0	0x3fafddd3	1.373957
1	0x400850f2	2.1299405
2	0xbfc8fccf	-1.5702151
3	0x3fdcce12	1.7250388
4	0x3f1547fa	0.5831295
5	0xc00a1adb	-2.1578891
6	0x4038c56e	2.8870502
7	0x3fb81a25	1.4382979
8	0x3e56b13e	0.2096605
9	0x3fa30b79	1.2737876
10	0x3fad94db	1.3561052
11	0x3ff396e9	1.9030429
12	0x3e88a4fb	0.2668837
13	0xbe9b76bf	-0.30364034
14	0xbda724b3	-0.08161297
15	0xc0090f22	-2.1415486

pnet/conv2/weights f4 [16, 3, 3, 10]
0	0xbf25d627	-0.64779896
1	0x3f881ec3	1.0634388
2	0x3f390005	0.72265655
3	0xbfa05332	-1.2525389
4	0xbea4a22e	-0.32154983
5	0xbeb2c717	-0.34917518
6	0xbe3d5d6c	-0.18492669
7	0xbe7327ca	-0.23745647
8	0x3f05ad26	0.5221733
9	0xbf1e7de9	-0.61910874
10	0xbebee37f	-0.3728294
11	0x3f1eea63	0.62076396
12	0xbd3bd210	-0.045854628
13	0xbf354476	-0.7080759
14	0xbf03159f	-0.51204866
15	0xbec8174d	-0.39080277
16	0xbded1ce1	-0.11577774
17	0xbe68f557	-0.2274984
18	0x3ed4fac5	0.41597572
19	0xbe9799c7	-0.2960951
20	0xbfe66cab	-1.8001913
21	0xbea95d09	-0.33078793
22	0x3ea20bd6	0.31649655
23	0x3e9fe810	0.31231737
24	0x3e33250e	0.17494604
25	0x3ef6fcba	0.4823969
26	0x3db90370	0.09033859
27	0xbd42d892	-0.04756982
28	0xbd83f2d5	-0.06442801
29	0xbeeb33ae	-0.45937866
30	0x3f64bf84	0.8935473
31	0x3eaba3ac	0.3352331
32	0xbecec840	-0.40387154
33	0x3f820643	1.0158161
34	0x3c7fe8c3	0.01561946
35	0x3dfd92fa	0.12381549
36	0xbd586101	-0.052826885
37	0x3d8d72aa	0.06906636
38	0x3f071e59	0.5278068
39	0x3f4bf1cd	0.79665834
40	0xbf024be5	-0.50897056
41	0xbe498af1	-0.19681908
42	0xbe9b734d	-0.30361405
43	0x3f221903	0.63319415
44	0x3e1fb72f	0.15597223
45	0x3e0aa97c	0.13541216
46	0xbddc7ff5	-0.10766593
47	0x3e789016	0.24273714
48	0xbdb3baa9	-0.08775837
49	0x3eb70ee4	0.35753548
50	0xbf17b800	-0.59265137
51	0xbf273b36	-0.65324724
52	0xbdd09c0e	-0.10186015
53	0xbf3f1deb	-0.74655026
54	0x3ddde6a6	0.10835008
55	0x3e9a4946	0.30134028
56	0xbdaa9511	-0.083292134
57	0xbc72b2f6	-0.014813175
58	0x3e77e038	0.24206626
59	0x3e77277c	0.24136156
60	0x3e843004	0.25817883
61	0xbf13e297	-0.57767624
62	0x3e79bb1a	0.2438778
63	0x3ffefbb4	1.9920564
64	0xbdc6fc6f	-0.09716117
65	0xbf04ec63	-0.519232
66	0x3f1f9021	0.623293
67	0x3e24a282	0.16077617
68	0xbf5ba0dd	-0.8579233
69	0xbc1d407a	-0.009597892
70	0xbf4b2036	-0.79346025
71	0x3e0b0d9a	0.13579407
72	0xbd62f66a	-0.05541078
73	0x3f3bfdb3	0.7343399
74	0x3b89f700	0.004210353
75	0xbeae2933	-0.34015808
76	0x3ec74973	0.38923225
77	0x3b4662c8	0.003027128
78	0xbf1b8be1	-0.60760313
79	0xbf09ae86	-0.53781927
80	0x3eba9d0d	0.36447945
81	0x3d96c1a5	0.073611535
82	0x3e3993dc	0.1812281
83	0x3f04cd3f	0.5187568
84	0x3d4b3bf8	0.049617738
85	0xbf1b1b5a	-0.6058861
86	0x3e60705b	0.2191786
87	0x3b9f5428	0.004862327
88	0x3decec63	0.11568525
89	0x3ea46171	0.32105592
90	0x3f658b3b	0.89665574
91	0xbfc09904	-1.5046697
92	0xc0cca92b	-6.3956504
93	0xc007e6ac	-2.123454
94	0xc08eda1a	-4.4641237
95	0x3fa45733	1.2839111
96	0x3fb83094	1.4389825
97	0x3edd7c63	0.43258962
98	0x3ecfd541	0.40592387
99	0xbfd0a325	-1.6299788
100	0x3f0b6f88	0.5446706
101	0x3dec04f8	0.11524385
102	0xc00d6f8c	-2.2099333
103	0x3fe304f3	1.7735885
104	0xbfbd0f95	-1.477038
105	0xbebc90a4	-0.36829102
106	0x3f4f9528	0.8108697
107	0x3db688b4	0.08912793
108	0x3ef0bc66	0.47018737
109	0xbff7c4fc	-1.935699
110	0x3f9c830f	1.2227496
111	0x3e4ad328	0.19807112
112	0x3e9ca261	0.30592635
113	0x4011760f	2.2728307
114	0xbe19e30b	-0.15028016
115	0xbe9bfea3	-0.3046771
116	0xbf335832	-0.7005645
117	0x3e210f76	0.15728554
118	0x3fac0ab4	1.3440766
119	0xbf2dcabb	-0.6788747
120	0x3d8350b6	0.06411879
121	0xbe787b41	-0.24265768
122	0xc050b7ac	-3.2612104
123	0xbf563e7e	-0.83689106
124	0xc0391e4d	-2.8924744
125	0x3f962b6e	1.1732004
126	0x3d424dff	0.047437664
127	0xbe3b9623	-0.18318991
128	0x3ff928af	1.9465541
129	0x3fa760f4	1.3076463
130	0xbe56fbea	-0.20994535
131	0xbe001df0	-0.1251142
132	0x3e2aa889	0.16665854
133	0x3fa74a93	1.3069633
134	0xbe2d79e7	-0.16941033
135	0x3f2fd92f	0.6869077
136	0x3f492bf3	0.78582686
137	0x3e32a505	0.17445762
138	0x3f9875ca	1.1910946
139	0x3f0976af	0.5369672
140	0x3f1b5107	0.6067051
141	0x3f816292	1.0108206
142	0x3e7b2a4b	0.24527852
143	0x3f1da76f	0.6158361
144	0x3e0fcaaf	0.14042161
145	0x3eae659d	0.340619
146	0xbef0bdae	-0.47019714
147	0x3e4444ff	0.19166945
148	0x3f83817d	1.0273892
149	0xbe3a89fa	-0.18216696
150	0xbf3f684a	-0.7476851
151	0x3f483e4d	0.78220063
152	0xbf1f4c01	-0.6222535
153	0x3fa55c37	1.2918767
154	0xbef91bcc	-0.4865402
155	0x3ebd4825	0.36969104
156	0x3f145974	0.57948995
157	0x3dd0ba5a	0.10191794
158	0xbec09bb8	-0.37618804
159	0xbefe3fc7	-0.49658033
160	0x3f11aa32	0.5690032
161	0x3ef20cd8	0.47275424
162	0xbd911e47	-0.07085853
163	0x3f19e5d2	0.601163
164	0x3fae228f	1.3604296
165	0x40078dba	2.1180253
166	0x3ddb31fd	0.10702894
167	0x3e13ab8f	0.14420913
168	0xbebf44c7	-0.3735716
169	0x3e9dc4d4	0.3081423
170	0xbfe66674	-1.8000016
171	0x3e8d9960	0.27656078
172	0xbf044976	-0.5167459
173	0xc04004d8	-3.0002956
174	0x3f124517	0.5713667
175	0x3f0dd63e	0.5540503
176	0x3e3d63a2	0.18495038
177	0xbd841c2c	-0.06450686
178	0xbde91eec	-0.11382851
179	0xbeb0aa17	-0.34504768
180	0x3e01cd2c	0.12675923
181	0x3f975d1c	1.182529
182	0xbd87c398	-0.066291034
183	0x3fbdcaff	1.4827574
184	0xbd38c3a1	-0.04510844
185	0xbccdb5d4	-0.025111116
186	0x3d6f1bc4	0.05837609
187	0xbd0a36fa	-0.033743836
188	0x3edad314	0.42739165
189	0x3f1a799c	0.6034181
190	0xbd32731e	-0.043566816
191	0xc0027030	-2.0380974
192	0xbd73e140	-0.059540987
193	0xbe422b9a	-0.18961945
194	0x3da7ac98	0.081872165
195	0x3f660ebf	0.8986625
196	0xbe49cc4f	-0.19706844
197	0x3d0074b5	0.0313613
198	0xbef3978c	-0.4757656
199	0xbdd7e085	-0.105408706
200	0x3e80dd64	0.25168908
201	0x3fb357d3	1.4011177
202	0x3d9e3e4a	0.077267244
203	0xbf3ca30d	-0.73686296
204	0xbed507c0	-0.41607475
205	0x3f10a7b2	0.5650588
206	0xbe0858bd	-0.13315101
207	0x3d205d2b	0.039151352
208	0x3ee7b312	0.45253807
209	0x3f03b0cd	0.5144165
210	0xbe8cf106	-0.27527636
211	0x3f344659	0.7041984
212	0x3f4f7a28	0.8104577
213	0x400ce4ba	2.2014604
214	0x3dc9e019	0.09857196
215	0xbfab4a1d	-1.3381993
216	0xbda98875	-0.0827798
217	0x3ce15bfd	0.027509684
218	0x3e514378	0.20435894
219	0xbee4296c	-0.44562852
220	0xbef26543	-0.47342882
221	0xbede2155	-0.43384805
222	0xbdcb330b	-0.09921845
223	0x3f651bfa	0.89495814
224	0xbda9cbba	-0.08290811
225	0xbe6d9486	-0.23201188
226	0xbd40d608	-0.047079116
227	0x3c88cfe5	0.016700694
228	0xbec75fd0	-0.38940287
229	0xbdd744a1	-0.10511137
230	0xbed0f199	-0.40809324
231	0xbe0859a2	-0.13315442
232	0x3ec08eba	0.37608892
233	0x3e85fe36	0.2617051
234	0xbe6a6425	-0.22889765
235	0x3e5bbc38	0.21458519
236	0xbdadf764	-0.08494452
237	0x3d8724f0	0.06598842
238	0xbda36773	-0.07978716
239	0x3c27f5b5	0.010251452
240	0x3f2d57e7	0.67712253
241	0xbf702b26	-0.9381584
242	0x3f0358b2	0.51307213
243	0x3f91678c	1.1359725
244	0x3eafdb89	0.3434718
245	0xc024e985	-2.576753
246	0x3e37d3c6	0.17951879
247	0xbe284b1b	-0.164349
248	0x3e831512	0.25602013
249	0xbfccd7cd	-1.6003357
250	0x3f065a86	0.5248188
251	0x3fa2991a	1.2702973
252	0xbc3d43d5	-0.011551817
253	0x3fd3901f	1.6528357
254	0xbe4baf10	-0.19891
255	0xbf24af59	-0.6433006

pnet/conv3/Conv2D_bias f4 [32]
0	0x3ee3c1cc	0.44483793
1	0xbdd2ebba	-0.102988675
2	0xbe39a386	-0.18128785
3	0x3f270e1d	0.6525591
4	0xbd964917	-0.073381595
5	0xbd4a4eac	-0.049391434
6	0x3dd267a1	0.10273672
7	0xbfa59880	-1.2937164
8	0xbf979e47	-1.1845177
9	0xbd41a627	-0.047277596
10	0xbd4374ea	-0.04771892
11	0xbe991e27	-0.29905817
12	0x3ec537f6	0.38519257
13	0xbe27fcee	-0.16405079
14	0x3f21f2a6	0.6326088
15	0xbda5ed4b	-0.08101901
16	0x401e948b	2.4778163
17	0xbd88bd9f	-0.06676792
18	0x3f3b8f40	0.7326546
19	0xbde8ae08	-0.11361319
20	0x3fbc1dae	1.4696558
21	0xbd432a37	-0.04764768
22	0xbd02541b	-0.03181849
23	0xbd7dc37e	-0.061954014
24	0x4021c3fc	2.527587
25	0xbf028523	-0.509844
26	0x4000d939	2.0132582
27	0xbd6355a4	-0.055501595
28	0xbfe8b366	-1.8179748
29	0xbd58165f	-0.05275571
30	0xbe0a477c	-0.13503832
31	0x3f8da80a	1.1066906

pnet/conv3/weights f4 [32, 3, 3, 16]
0	0x3b1e9675	0.0024198566
1	0x3b72a50f	0.0037024652
2	0xbb70584b	-0.003667372
3	0xbc110a5c	-0.0088525675
4	0xb8b8bff8	-8.809561e-05
5	0x39f0a014	0.00045895635
6	0x3be3c29c	0.0069506895
7	0xbc38fd88	-0.011290915
8	0x3a0de31a	0.0005412564
9	0x3b3e2dbc	0.002901896
10	0x3c0e7037	0.008693746
11	0xbb8e4a0d	-0.0043423236
12	0xbb443586	-0.002993913
13	0xba63c878	-0.0008689235
14	0xbbb18509	-0.0054174704
15	0xba7e2240	-0.00096944347
16	0x3b3d0eaf	0.0028847863
17	0x39bd22f3	0.00036074928
18	0xbb095189	-0.002095314
19	0xbc2585cc	-0.0101027
20	0xbbc2b016	-0.0059414012
21	0x3af410ff	0.0018620788
22	0x3af159a2	0.0018413553
23	0xbca0b434	-0.019617178
24	0x3b56ba5a	0.0032764883
25	0x3b9b2028	0.004734058
26	0x3c10dca0	0.008841664
27	0xbc30715e	-0.010769216
28	0xba06f38c	-0.00051479856
29	0xbb5077f8	-0.0031809788
30	0xbc223834	-0.009901095
31	0x3bab38b6	0.0052252663
32	0x3b5e778a	0.0033945763
33	0xbafc994d	-0.0019271761
34	0x3a5f5058	0.0008518747
35	0xb9ba214d	-0.00035501496
36	0x3b9990bc	0.004686443
37	0xbaf5f42d	-0.0018764787
38	0x3c0d4fa2	0.008624943
39	0xbbd671d8	-0.006544333
40	0x3b8a1c15	0.0042147734
41	0x3babf25d	0.005247398
42	0x3c377530	0.011197373
43	0xbc3a3bc9	-0.011366793
44	0x3bb03673	0.0053775846
45	0xbbca27c8	-0.006169293
46	0xbbdaa285	-0.006672206
47	0x3aab335b	0.001306157
48	0x3a339958	0.0006851158
49	0x3b14f7ed	0.0022730783
50	0x3c2ea0c1	0.010658444
51	0x3be83090	0.007085867
52	0x3b305b14	0.0026909756
53	0xbc044b52	-0.008074598
54	0x3b0c8fdb	0.002144805
55	0x3b30c7ac	0.0026974482
56	0xbbe1bff3	-0.006889337
57	0x39d125ab	0.0003989165
58	0xbbb1dea9	-0.0054281545
59	0xba849163	-0.0010114129
60	0xb8c97808	-9.6067844e-05
61	0x39b6b904	0.00034851592
62	0xbb12736d	-0.002234663
63	0x3c0bbf60	0.008529514
64	0x3bacd829	0.0052747917
65	0xbba8386a	-0.005133678
66	0x3c427321	0.011868269
67	0x3c7726e8	0.01508496
68	0xbb2c014b	-0.0026245888
69	0xbc5bfd91	-0.013427154
70	0xb88c640c	-6.6943554e-05
71	0x3b9963ec	0.004681101
72	0xbb54abce	-0.0032451036
73	0xbb379b51	-0.002801616
74	0xbbef1d2d	-0.007297179
75	0x3b8d7c70	0.0043178126
76	0xb98b3d4c	-0.00026557816
77	0x3c1b0dbf	0.009463727
78	0xbc0ff847	-0.008787221
79	0x3afb8284	0.0019188677
80	0x3bbe04d4	0.0057989154
81	0xbb7c6965	-0.0038514968
82	0x3c0d8871	0.008638487
83	0x3b95463f	0.004555493
84	0xbc022ebb	-0.007945712
85	0xbc7cdb9f	-0.015433221
86	0x3a30851e	0.0006733703
87	0x3b5eab19	0.0033976494
88	0xbbdd0467	-0.0067449096
89	0xba1293a1	-0.00055914564
90	0xbc0cc8d5	-0.008592804
91	0x3c02fb2f	0.007994457
92	0xb989ddd3	-0.00026295948
93	0x3c2d91bf	0.010593831
94	0xbc18797a	-0.009306306
95	0xba1cba53	-0.0005978692
96	0xb93e13ac	-0.0001812714
97	0xbb831fdf	-0.004001602
98	0x39fa7f2e	0.00047778472
99	0x3b443642	0.0029939567
100	0x3b7c2d2b	0.003847907
101	0x3b9ec073	0.004844719
102	0xbc2cf7f6	-0.010557165
103	0x3b074853	0.0020642474
104	0x3a849c5d	0.0010117401
105	0xbb20a02f	-0.002450954
106	0x3b582a41	0.003298417
107	0x3befe73b	0.007321266
108	0xbc1088ff	-0.008821725
109	0xbba58338	-0.005051043
110	0x3b24fad2	0.0025173915
111	0x3c0b721f	0.008511095
112	0xbb05bf8f	-0.0020408367
113	0xbc2314f0	-0.009953722
114	0xbb28ddfd	-0.002576708
115	0x3a6c7ca8	0.0009021261
116	0xbbb136dd	-0.0054081515
117	0xbb018d62	-0.0019768109
118	0xbc18bdfe	-0.009322641
119	0x3af3c646	0.0018598519
120	0x3bd0206e	0.006351522
121	0xbb9de408	-0.004818443
122	0xba2373a3	-0.0006235188
123	0x3c393eac	0.011306446
124	0xbc0995fe	-0.008397577
125	0xbbba3d8d	-0.005683607
126	0x3c0ca648	0.008584566
127	0x3b5c20c1	0.0033588859
128	0xb8da6837	-0.000104144616
129	0xbbbf3b00	-0.005835891
130	0xbb207560	-0.0024484023
131	0xbb4fa83c	-0.003168597
132	0xbbe2333b	-0.00690308
133	0x3a0ec506	0.0005446229
134	0xbc4c0dfa	-0.012454504
135	0xbb9999f5	-0.0046875426
136	0x3b9816d0	0.0046413913
137	0xbbb526c7	-0.0055283043
138	0xbbb904a6	-0.005646306
139	0x3c0b6b78	0.008509509
140	0xbc01b094	-0.007915635
141	0x3b347e68	0.0027541164
142	0x3bc3c958	0.00597493
143	0xbb9a3e37	-0.0047071236
144	0x098bab76	3.3624274e-33
145	0x0987c34c	3.2683724e-33
146	0x0a605f11	1.0803088e-32
147	0x0a09d7eb	6.63692e-33
148	0x0ac2f1d3	1.8772485e-32
149	0x0abcf9b0	1.8197663e-32
150	0x091c4f70	1.8815168e-33
151	0x0aa01075	1.541363e-32
152	0x0b04ad8d	2.555284e-32
153	0x89e6be0a	-5.5549198e-33
154	0x08cc5300	1.2297317e-33
155	0x08386be0	5.5497292e-34
156	0x090d1ee8	1.698679e-33
157	0x0a475ca1	9.598923e-33
158	0x0a5c9c3c	1.0621999e-32
159	0x8b0907cc	-2.6391106e-32
160	0x898435c4	-3.1828405e-33
161	0x8a6bbec8	-1.13507204e-32
162	0x89f5eace	-5.9202414e-33
163	0x8aaefc1e	-1.6850426e-32
164	0x8a52d375	-1.0150903e-32
165	0x8a264611	-8.005787e-33
166	0x0a089619	6.576392e-33
167	0x07a4cb00	2.479529e-34
168	0x08b3f360	1.0830388e-33
169	0x09f0e9d8	5.7997804e-33
170	0x8afe9702	-2.4516113e-32
171	0x09b5f4da	4.3804422e-33
172	0x0a5b13c5	1.0548185e-32
173	0x0a510424	1.0063763e-32
174	0x0aaab091	1.6436821e-32
175	0x8a9767d2	-1.4579824e-32
176	0x8a23824c	-7.872671e-33
177	0x8aa34a4a	-1.5724273e-32
178	0x0a1a38e0	7.425527e-33
179	0x87cb5240	-3.0592387e-34
180	0x0b16dab6	2.905349e-32
181	0x8a687585	-1.1192497e-32
182	0x8ae9b802	-2.25063e-32
183	0x0ab40d20	1.7338307e-32
184	0x8ae19871	-2.1724054e-32
185	0x0a1afd74	7.4624995e-33
186	0x0aa10f04	1.5509384e-32
187	0x8a28be34	-8.124679e-33
188	0x09054d40	1.6045615e-33
189	0x8a3d0c9a	-9.102389e-33
190	0x89bd4330	-4.5563278e-33
191	0x8ac15e94	-1.86208e-32
192	0x8aa37e7d	-1.5743909e-32
193	0x0abfacdb	1.8457652e-32
194	0x0a0e53b6	6.8527956e-33
195	0x8a29d3e9	-8.17691e-33
196	0x09e0cbba	5.4117622e-33
197	0x8aa0dc5e	-1.5490332e-32
198	0x0aaf7858	1.6897155e-32
199	0x0a81340e	1.2441829e-32
200	0x0b02c3ea	2.518448e-32
201	0x8861c490	-6.7939533e-34
202	0x0b0a9ae8	2.6694372e-32
203	0x8b096f4b	-2.6468968e-32
204	0x8acae08c	-1.9536358e-32
205	0x0aa38af0	1.5748592e-32
206	0x0a8ef432	1.3765959e-32
207	0x8aa5e490	-1.5974898e-32
208	0x8b11a4aa	-2.8049864e-32
209	0x0aadf999	1.6753182e-32
210	0x8ab875b3	-1.7762829e-32
211	0x0a02f7ad	6.305855e-33
212	0x0a8221d4	1.253127e-32
213	0x0a895b40	1.3226945e-32
214	0x099b24ec	3.7349614e-33
215	0x0b0e2256	2.7374037e-32
216	0x0b02426c	2.508706e-32
217	0x0a906251	1.3903678e-32
218	0x0a2349c8	7.862041e-33
219	0x8a6225a4	-1.08885836e-32
220	0x0a065ea5	6.469666e-33
221	0x8a5a1f18	-1.0502166e-32
222	0x09f1769b	5.8130176e-33
223	0x09cb5dd2	4.89587e-33
224	0x098055c2	3.0895525e-33
225	0x0a140907	7.127639e-33
226	0x89a36397	-3.9334476e-33
227	0x0a9b6128	1.4962503e-32
228	0x0aaf894c	1.6903532e-32
229	0x0abb0954	1.8010954e-32
230	0x09fd673e	6.1004623e-33
231	0x8ab565be	-1.7467937e-32
232	0x0a1602ca	7.222762e-33
233	0x0a8879f7	1.3142202e-32
234	0x0aacd80b	1.6644264e-32
235	0x0b1261d0	2.8192163e-32
236	0x89f9e906	-6.0163704e-33
237	0x0a858a41	1.285944e-32
238	0x8a93fc81	-1.4250567e-32
239	0x0aeb001e	2.2629721e-32
240	0x0a3bc868	9.041415e-33
241	0x0a1bb0c4	7.4962245e-33
242	0x8b141e40	-2.852652e-32
243	0x8b047c6b	-2.5515877e-32
244	0x0a30685a	8.493718e-33
245	0x8990ad8c	-3.482994e-33
246	0x0acdb4c8	1.9808784e-32
247	0x06608600	4.2228165e-35
248	0x09e8e478	5.606682e-33
249	0x8a8d47fe	-1.3604887e-32
250	0x88a28850	-9.782067e-34
251	0x8a9ddf55	-1.5202558e-32
252	0x08965700	9.04825e-34
253	0x8aab28f3	-1.6482104e-32
254	0x8a988f30	-1.4690929e-32
255	0x0adcc4c8	2.125925e-32

pnet/conv4-1/Conv2D_bias f4 [2]
0	0x3f26c6fa	0.65147364
1	0xbf26c6e7	-0.6514725

pnet/conv4-1/weights f4 [2, 1, 1, 32]
0	0xbdb393db	-0.087684356
1	0x8a982732	-1.4651811e-32
2	0x09513998	2.518454e-33
3	0xbd3953a9	-0.0452458
4	0x0a33d4dc	8.658571e-33
5	0x8a9c630e	-1.5059514e-32
6	0x3d923483	0.07138922
7	0x3ddb23bc	0.10700175
8	0x3e4315ea	0.19051328
9	0x8a598bc7	-1.0474459e-32
10	0x8821f158	-4.8732873e-34
11	0x07dd5d3c	3.3307182e-34
12	0xbddf1cec	-0.10894188
13	0x88a018d0	-9.635483e-34
14	0xbdc479ad	-0.0959352
15	0x0a86ede3	1.2993214e-32
16	0x3e446fe4	0.19183308
17	0x8a0f7edf	-6.909061e-33
18	0x3d91c0c6	0.07116847
19	0x89aae459	-4.114075e-33
20	0xbe50a7a8	-0.20376456
21	0x0a65ba83	1.1061028e-32
22	0x890e282a	-1.7111513e-33
23	0x88d60ba0	-1.28823895e-33
24	0x3e230cef	0.15922903
25	0x3dda2636	0.106518194
26	0x3d17d3c1	0.03706718
27	0x3a141028	0.00056481594
28	0xbdf1385b	-0.11778327
29	0x8ab2a2a9	-1.7201962e-32
30	0xb5039150	-4.901276e-07
31	0xba816efa	-0.0009874993
32	0x3db393dd	0.08768437
33	0x0a98273a	1.4651823e-32
34	0x89513975	-2.5184476e-33
35	0x3d3953a9	0.0452458
36	0x8a33d4d8	-8.658568e-33
37	0x0a9c6320	1.505954e-32
38	0xbd923488	-0.07138926
39	0xbddb23b8	-0.10700172
40	0xbe4315f1	-0.19051339
41	0x0a598bcc	1.0474463e-32
42	0x0821ef48	4.873045e-34
43	0x87dd5c38	-3.3306586e-34
44	0x3ddf1ce9	0.10894186
45	0x08a018d0	9.635483e-34
46	0x3dc479b5	0.09593526
47	0x8a86ede1	-1.299321e-32
48	0xbe446fde	-0.19183299
49	0x0a0f7eea	6.9090694e-33
50	0xbd91c0c2	-0.07116844
51	0x09aae45a	4.1140752e-33
52	0x3e50a7a4	0.2037645
53	0x8a65ba8c	-1.10610345e-32
54	0x090e2834	1.7111532e-33
55	0x08d60b98	1.2882382e-33
56	0xbe230cee	-0.15922901
57	0xbdda2642	-0.10651828
58	0xbd17d3c0	-0.037067175
59	0xba14104b	-0.000564818
60	0x3df13867	0.11778336
61	0x0ab2a29c	1.7201943e-32
62	0x35039169	4.90129e-07
63	0x3a816f33	0.0009875059

pnet/conv4-2/Conv2D_bias f4 [4]
0	0x3dae8ec4	0.08523324
1	0xbc8c0050	-0.017089993
2	0xbd25afe1	-0.040450934
3	0x3c3eb055	0.0116387205

pnet/conv4-2/weights f4 [4, 1, 1, 32]
0	0x3c180754	0.009279091
1	0x06f41400	9.1811986e-35
2	0x099f7bc8	3.839426e-33
3	0x3c80ed52	0.015738163
4	0x8a9afe42	-1.4925302e-32
5	0x8a7d24c8	-1.2188425e-32
6	0xbc06b0b6	-0.008220842
7	0x3c74dc82	0.014945151
8	0xbbd10cae	-0.0063796854
9	0x0a34d59e	8.706862e-33
10	0x8a6fb284	-1.15410065e-32
11	0x06818740	4.872314e-35
12	0xbb1aa73a	-0.002359821
13	0x0aa9a732	1.6337e-32
14	0xbbe4ecc4	-0.0069862325
15	0x08fcfca0	1.522609e-33
16	0x3a0d1721	0.00053821696
17	0x8ab4fe88	-1.7429114e-32
18	0xbbb46e6b	-0.005506327
19	0x0a01ad00	6.243662e-33
20	0x3b5cb722	0.0033678492
21	0x89ceda30	-4.979788e-33
22	0x0ae98320	2.2486408e-32
23	0x0a29c9b4	8.17499e-33
24	0xbc92734f	-0.017877249
25	0xbbece095	-0.0072289207
26	0x3a677754	0.0008829732
27	0xbcad3f31	-0.021148296
28	0xbb02b858	-0.0019946303
29	0x8abfcb5f	-1.846913e-32
30	0xb353634e	-4.9217583e-08
31	0xbb16b507	-0.0022996084
32	0x3c6cf8af	0.014463588
33	0x8a124c78	-7.0440265e-33
34	0x8a2f4ed0	-8.4407665e-33
35	0x3ba22628	0.0049483962
36	0x0a049f6a	6.385551e-33
37	0x8a3cbfc8	-9.087941e-33
38	0xbce426f5	-0.027850607
39	0x3b398a0f	0.002831105
40	0xbb9777b0	-0.004622422
41	0x89bd6368	-4.5593576e-33
42	0x09f9a864	6.0102923e-33
43	0x8a2a36a5	-8.19548e-33
44	0xbc59cdf9	-0.013293737
45	0x0a88d96b	1.3178107e-32
46	0xbd196cb5	-0.037457187
47	0x0ab8fc04	1.7813353e-32
48	0xbc1f2ff4	-0.009716023
49	0x0878bfa0	7.485504e-34
50	0xbb5983c4	-0.003319011
51	0x0997ae52	3.6515858e-33
52	0xbc466cb7	-0.012110881
53	0x0af394ce	2.3456023e-32
54	0x0a9a704c	1.4871902e-32
55	0x893ee820	-2.2979563e-33
56	0xbbfe560c	-0.0077617224
57	0xbcde65ab	-0.027148088
58	0x3cf4eee9	0.029899077
59	0x3c39c921	0.011339457
60	0xbb2be701	-0.0026230218
61	0x0aa93ecd	1.6297731e-32
62	0x3485ef16	2.4947138e-07
63	0xbbb9591d	-0.005656375
64	0xbbfd86de	-0.0077370247
65	0x89d7a98e	-5.1918816e-33
66	0x8ac80e1b	-1.9264605e-32
67	0x3b0926a7	0.002092758
68	0x8aa6a188	-1.604598e-32
69	0x09b40948	4.334215e-33
70	0x3b4e68c5	0.0031495553
71	0x3bb94667	0.0056541446
72	0x3be5e4ec	0.007015815
73	0x09cac442	4.881429e-33
74	0x092f4eac	2.110185e-33
75	0x0aab2588	1.6480819e-32
76	0x3b39f127	0.0028372498
77	0x8737fb80	-1.3841299e-34
78	0x3c45478c	0.012040984
79	0x0ab6e3d5	1.7611663e-32
80	0x3cbc874f	0.023013739
81	0x0abf8a89	1.8444742e-32
82	0x3bd166e5	0.00639044
83	0x8a4e7c91	-9.9419676e-33
84	0x3ce3235c	0.027726822
85	0x0a0b5cc0	6.710051e-33
86	0x8a947a9a	-1.4297999e-32
87	0x8a2c753c	-8.303548e-33
88	0xbb0a8116	-0.002113407
89	0xbbcbd705	-0.0062207007
90	0xbb65188b	-0.0034957256
91	0x3c82a849	0.015949385
92	0x3c340781	0.010988117
93	0x88a33520	-9.822695e-34
94	0xb4a0de56	-2.9964093e-07
95	0xbbfa2c77	-0.007634695
96	0xbbfa0bd1	-0.007630803
97	0x09a28ec0	3.9134323e-33
98	0x89183e90	-1.8325751e-33
99	0xbbf38dfd	-0.007432698
100	0x8a98a200	-1.4698005e-32
101	0x0a3a0e84	8.958304e-33
102	0xbc2fcb15	-0.010729571
103	0xbbd58e1f	-0.0065171863
104	0x3bcb13ee	0.006197444
105	0x0a9975d0	1.477768e-32
106	0x0a3c56e0	9.06821e-33
107	0x8a90a11a	-1.3927295e-32
108	0x3c018a6a	0.007906536
109	0x0a7cbf32	1.21693185e-32
110	0xbc8f88e7	-0.017521335
111	0x8a27b85c	-8.075432e-33
112	0x3c07f50c	0.00829817
113	0x8a143cce	-7.137377e-33
114	0x3c70a9cc	0.01468892
115	0x09011ec2	1.5542272e-33
116	0x3cb6f4a9	0.02233346
117	0x8a1d0a42	-7.561204e-33
118	0x8a8ba7cc	-1.3448331e-32
119	0x893254a4	-2.1465768e-33
120	0x3c0278ca	0.007963369
121	0x3cb04b0f	0.021520166
122	0x3d0fdab0	0.035120666
123	0xbc5b15c8	-0.013371892
124	0x3c084d21	0.00831917
125	0x084a0040	6.078746e-34
126	0x348403bd	2.4589636e-07
127	0xbc8ab112	-0.016930137
